scripts/bert/conversion_tools/ernie_top_layer_emb.npy (npy, 33920 bytes, 1 tensors)

array f4 [11, 768]
0	0xbe9f8cf0	-0.31162214
1	0x3ecff311	0.40615132
2	0xbf53c121	-0.82716566
3	0x3dfce06e	0.12347494
4	0x3f8b1e9b	1.0868715
5	0xbd5413de	-0.05177676
6	0x3e2fb0d0	0.17157292
7	0x3f633da3	0.88765925
8	0xbd5e32c0	-0.054247618
9	0x3fa1c17f	1.2637175
10	0xbe510406	-0.20411691
11	0x3e2f385f	0.17111348
12	0x40003e8a	2.003817
13	0xbf50a5ca	-0.81502974
14	0x3e90f3a0	0.2831087
15	0xbc502434	-0.012703944
16	0xbe508630	-0.20363688
17	0xbf7f89b9	-0.99819523
18	0x3ee7ff19	0.45311812
19	0xbd291110	-0.041276038
20	0x3f119692	0.5687038
21	0x40492c05	3.1433117
22	0xbfc01eb1	-1.5009366
23	0xbe8868da	-0.26642495
24	0xc00286ab	-2.0394695
25	0xbe84fd64	-0.25974572
26	0xbf8e0543	-1.1095356
27	0x400c7bcd	2.1950562
28	0x3cf9ed50	0.030508667
29	0xbeee8597	-0.46586296
30	0xbff6749d	-1.9254338
31	0x3ec4c2d2	0.38429886
32	0x3ea17f67	0.31542513
33	0x3ec38c7a	0.38193113
34	0x3d67cd09	0.05659202
35	0x3f39bfc2	0.72558224
36	0x3edd3c83	0.4321023
37	0xbf080053	-0.53125495
38	0xbf399f16	-0.7250837
39	0x408db06e	4.427787
40	0x3f46f627	0.7771935
41	0xbea1faae	-0.31636566
42	0xbf969bdf	-1.1766318
43	0x3f9207f2	1.1408675
44	0xbfeb4184	-1.8379369
45	0x3e226339	0.15858163
46	0x3f3aa040	0.7290077
47	0xbe1649b5	-0.14676555
48	0x3f2b90a4	0.6701758
49	0x3ed36c21	0.41293433
50	0x3ec251a0	0.379529
51	0x3fb88aba	1.4417336
52	0xbdc0c889	-0.09413249
53	0xbd8b153e	-0.06791161
54	0x3df5fbc6	0.120109126
55	0xbf9e41b2	-1.2363799
56	0xbf0091e5	-0.5022262
57	0xbf2979c4	-0.66201425
58	0xbf6ee781	-0.93321997
59	0x3f4cad20	0.7995167
60	0xbf7fd63e	-0.9993628
61	0xbf3f910b	-0.74830693
62	0xbf4e232b	-0.8052241
63	0xbf748dad	-0.9552868
64	0xbe24b3e8	-0.16084254
65	0xbf6a7d56	-0.915975
66	0x3f187490	0.5955286
67	0x3f9b5c74	1.213759
68	0xbf1f89c8	-0.6231961
69	0xbd33f998	-0.043939203
70	0x3dbee494	0.093209416
71	0xc0408962	-3.0083852
72	0x3e98da40	0.29854012
73	0x3ee4f0d9	0.44715002
74	0xbec831a0	-0.3910036
75	0x3d9addec	0.075618595
76	0xbeb16b72	-0.34652287
77	0x3f82e961	1.0227472
78	0xbe8d6bf8	-0.27621436
79	0xbeee4364	-0.4653579
80	0x3eb7c4ec	0.35892427
81	0xbe952d67	-0.29136202
82	0xbef1a3de	-0.47195333
83	0x3f524f9f	0.8215274
84	0xbe265dde	-0.16246745
85	0xbed1bd96	-0.40964955
86	0x3db365c2	0.08759643
87	0x3efe9c4e	0.49728626
88	0x3f4c539e	0.7981509
89	0xbed86198	-0.42261958
90	0x3ebfe1b0	0.37476873
91	0x4014c100	2.3242798
92	0x3f35d29e	0.710245
93	0x3e996e42	0.29966933
94	0xbf95c69f	-1.1701239
95	0xbf9ccde8	-1.2250338
96	0xbe8229b2	-0.25422436
97	0xbdc401d2	-0.0957066
98	0x3ea18ff2	0.31555134
99	0xbf861fff	-1.0478514
100	0x3f4195a9	0.7561899
101	0x3ca7db98	0.020490453
102	0xbe5265d4	-0.20546657
103	0xbfa1eb9f	-1.2650031
104	0xbf6098f8	-0.8773341
105	0x3db05d26	0.08611517
106	0x3f61f578	0.8826518
107	0xbfa04887	-1.2522134
108	0xbf32751c	-0.69709945
109	0x3ebfa74f	0.37432334
110	0x3fbbceb9	1.4672462
111	0x3f9015f8	1.1256704
112	0x3daad7cc	0.08341941
113	0x3ec42bc0	0.3831463
114	0xbe0c01a8	-0.13672507
115	0x3ffea657	1.9894513
116	0xbe8d6370	-0.27614927
117	0x3f17ef93	0.59349936
118	0xbf805e1a	-1.0028718
119	0xbe69c9cc	-0.22830886
120	0xbf25ab9c	-0.6471498
121	0xbf62176a	-0.8831698
122	0xbf9bb1a2	-1.2163584
123	0x3f421839	0.7581821
124	0x3f5784a1	0.8418675
125	0xbf4fdb43	-0.8119394
126	0xbf2f637a	-0.68511164
127	0x3d3b5190	0.04573208
128	0x3c540d70	0.012942657
129	0xbf0b9839	-0.5452915
130	0x3f762cb2	0.9616195
131	0xbe8b83ce	-0.27248996
132	0x3f3156cd	0.6927307
133	0xbfb587b5	-1.418204
134	0x3dc95ef0	0.09832561
135	0xbed709d4	-0.41999686
136	0xbf4965f9	-0.7867122
137	0x3f2313df	0.63702196
138	0x3fd72d04	1.6810613
139	0x3f4ecd50	0.8078203
140	0xbfc53080	-1.5405426
141	0x3f010229	0.5039392
142	0xbf742ea0	-0.95383644
143	0xbf1d619f	-0.6147708
144	0x3c891d60	0.01673764
145	0x3d1b09c0	0.037851095
146	0x3c2f7084	0.010707978
147	0x3e188760	0.14895391
148	0xbebd9249	-0.3702567
149	0x3eba530c	0.36391485
150	0xbed25b34	-0.41085207
151	0xbf5f250a	-0.8716589
152	0xbf6c954e	-0.9241532
153	0xbfbb7697	-1.4645566
154	0xbd0b94d8	-0.034077495
155	0xbee932e4	-0.4554664
156	0x3f49991c	0.7874925
157	0x3f4d2b12	0.80143845
158	0x3da13a4a	0.07872446
159	0xbe5340d0	-0.20630193
160	0x3e1f94b1	0.15584065
161	0x3ec9fd0b	0.3945087
162	0xbf681cbc	-0.90668845
163	0xbefadadb	-0.48995098
164	0x3f46d70c	0.77671885
165	0xbecb3504	-0.39688885
166	0x403138b7	2.7690866
167	0xbe4aa8ef	-0.19791006
168	0xbebd117f	-0.3692741
169	0xbf103404	-0.5632937
170	0x3d380c28	0.044933468
171	0x3f2af3bb	0.66778153
172	0xbfb27326	-1.394139
173	0xbec64702	-0.3872605
174	0xbfd2b26a	-1.6460698
175	0x3f613e9a	0.8798615
176	0x4017453e	2.3636012
177	0x3e9e6092	0.30933052
178	0x3f42322a	0.75857794
179	0xbf341dda	-0.7035805
180	0xbe3a540a	-0.18196121
181	0xbfa8c046	-1.3183677
182	0xbfac299d	-1.3450199
183	0x3f9e8490	1.2384205
184	0xbeb3fa88	-0.35152078
185	0x3e33b294	0.17548591
186	0xbeac8009	-0.33691433
187	0xbf023eaa	-0.5087687
188	0x3f1c0284	0.6094134
189	0xbf0c9f02	-0.54930127
190	0x4044049a	3.0627809
191	0x3dd6fc24	0.10497311
192	0x3f4e863a	0.80673563
193	0xbeac6090	-0.3366742
194	0x3ea302fa	0.31838208
195	0xbffe0598	-1.9845457
196	0x3d8fb433	0.07016792
197	0xbee0c6c6	-0.43901652
198	0xbf09f463	-0.5388853
199	0x3f8f8d94	1.1215081
200	0xbe26dbbc	-0.1629476
201	0x3f3ea9b1	0.7447768
202	0x3ffc3cf8	1.9706106
203	0x3e564b22	0.20927098
204	0x3fdae3aa	1.7100728
205	0xbb70f0a0	-0.0036764517
206	0xbc35e090	-0.011100903
207	0xbd96bbc1	-0.0736003
208	0x3f8069e7	1.0032319
209	0x3fa74976	1.3069293
210	0xbfadb270	-1.357008
211	0xbf1327b4	-0.5748246
212	0xbf22ba7a	-0.6356579
213	0xbe633322	-0.22187474
214	0xbe9e3a38	-0.30903792
215	0xbf39a865	-0.72522575
216	0xbf4ebcea	-0.8075701
217	0x3ec95f9d	0.3933076
218	0xbf8802cb	-1.0625852
219	0xbf9a37f4	-1.2048326
220	0xbd8fa558	-0.07013959
221	0xbf51e0f0	-0.8198385
222	0xbfcdbbb5	-1.6072909
223	0xbec8fd7e	-0.392559
224	0x3e20edee	0.15715763
225	0x3f083a8e	0.5321435
226	0x3e244d24	0.16045052
227	0x3e98554a	0.2975257
228	0xbf5941bf	-0.84865946
229	0x3fa5d4bc	1.2955546
230	0xbf52f001	-0.82397467
231	0x3f0bf7b4	0.5467484
232	0xbdc8a484	-0.09797004
233	0xbec1b202	-0.37831122
234	0xbe0d0155	-0.1377004
235	0x3f4268eb	0.7594134
236	0x3f132e3c	0.57492423
237	0x3dcdabed	0.10042558
238	0xbf86fca3	-1.0545849
239	0xc0057593	-2.0853012
240	0xbf11a098	-0.5688567
241	0xbf43c02f	-0.76465124
242	0xbf03650c	-0.5132606
243	0x3e766dfc	0.24065393
244	0x3f3474ba	0.7049061
245	0x3f8e75cf	1.1129702
246	0x3dc917c1	0.09818984
247	0xbe8355be	-0.25651354
248	0xbf91c35e	-1.1387746
249	0x3fa5c24c	1.294992
250	0x3f2e3412	0.68048203
251	0xbfd8c04e	-1.6933687
252	0xbf86a06c	-1.0517707
253	0xbe5bab8d	-0.2145216
254	0x3f534a1e	0.8253497
255	0xbe55bf4f	-0.2087376
